LAB6-maddpg_pytorch/models/simple_spread/MADDPG/run1/model.pt (torch_old, 355891 bytes, 114 tensors)

in_fn.weight f4 [18]
1.0 1.0 1.0 1.0 1.0 1.0 1.0 1.0
1.0 1.0 1.0 1.0 1.0 1.0 1.0 1.0
1.0 1.0
00000000: 0000 803f 0000 803f 0000 803f 0000 803f
00000010: 0000 803f 0000 803f 0000 803f 0000 803f
00000020: 0000 803f 0000 803f 0000 803f 0000 803f
00000030: 0000 803f 0000 803f 0000 803f 0000 803f
00000040: 0000 803f 0000 803f

in_fn.bias f4 [18]
0.0 0.0 0.0 0.0 0.0 0.0 0.0 0.0
0.0 0.0 0.0 0.0 0.0 0.0 0.0 0.0
0.0 0.0
00000000: 0000 0000 0000 0000 0000 0000 0000 0000
00000010: 0000 0000 0000 0000 0000 0000 0000 0000
00000020: 0000 0000 0000 0000 0000 0000 0000 0000
00000030: 0000 0000 0000 0000 0000 0000 0000 0000
00000040: 0000 0000 0000 0000

in_fn.running_mean f4 [18]
0.0 0.0 0.0 0.0 0.0 0.0 0.0 0.0
0.0 0.0 0.0 0.0 0.0 0.0 0.0 0.0
0.0 0.0
00000000: 0000 0000 0000 0000 0000 0000 0000 0000
00000010: 0000 0000 0000 0000 0000 0000 0000 0000
00000020: 0000 0000 0000 0000 0000 0000 0000 0000
00000030: 0000 0000 0000 0000 0000 0000 0000 0000
00000040: 0000 0000 0000 0000

in_fn.running_var f4 [18]
1.0 1.0 1.0 1.0 1.0 1.0 1.0 1.0
1.0 1.0 1.0 1.0 1.0 1.0 1.0 1.0
1.0 1.0
00000000: 0000 803f 0000 803f 0000 803f 0000 803f
00000010: 0000 803f 0000 803f 0000 803f 0000 803f
00000020: 0000 803f 0000 803f 0000 803f 0000 803f
00000030: 0000 803f 0000 803f 0000 803f 0000 803f
00000040: 0000 803f 0000 803f

fc1.weight f4 [64, 18]
0.12144871 -0.10403384 -0.04569359 0.11063133 -0.22189881 0.14135472 -0.04848993 0.11991207
0.032766625 -0.02886036 0.0653746 0.0116276145 0.086085096 -0.09185341 -0.017184764 -0.021219641
0.03416361 -0.0009415895 0.20604308 0.07334821 -0.08777699 -0.14235505 -0.03950739 -0.10166797
-0.07553044 0.011285797 0.14050867 0.12811281 -0.23041095 0.14611666 0.0658467 0.22357668
0.15557759 -0.21475722 -0.2241077 -0.11368677 0.20697291 -0.039260685 0.10087101 -0.10953353
0.2312753 -0.09972526 0.17675896 0.0027911067 -0.12417206 0.12115447 -0.12511551 0.06932114
-0.068060726 -0.025841072 -0.22660135 -0.11237853 0.12790005 -0.057293862 0.23477112 0.18893619
-0.011036441 -0.15732726 0.14353375 0.07315187 -0.1523626 0.15309913 0.14309527 0.20904313
-0.13212517 -0.038798004 -0.004565999 0.03442608 -0.17887875 -0.1672596 0.1282231 -0.055270284
0.115134284 0.013437375 0.07739161 0.05182825 0.08570121 0.11684014 -0.21828671 0.11864106
-0.16572773 -0.17783947 0.0143340975 -0.04016535 0.13843359 -0.13650358 -0.20953505 0.17153676
-0.03495036 0.13257243 0.075774625 -0.1767473 0.04735218 0.05661489 -0.15781648 -0.11183419
0.08036874 0.042219594 -0.100261286 -0.07135083 0.21587561 -0.043609932 0.13288696 0.102059826
-0.15235962 -0.20044816 0.22624792 0.012307614 0.161564 0.04884492 0.0758072 0.17605983
0.22349633 -0.15640754 0.029469624 0.17589454 0.17075099 0.14642732 -0.17058218 -0.16973019
-0.14254603 0.029610887 0.23491617 -0.14888737 0.12560125 -0.13045841 -0.22161096 -0.05009608
0.13580479 0.21882005 -0.14638025 0.05115004 0.2033781 0.15618895 0.1468951 0.16749771
0.14908554 0.060881034 -0.16117795 -0.19793299 -0.10800363 -0.027446568 -0.14447424 0.08623253
0.07294698 -0.05337131 0.090589985 0.07617538 0.14390542 0.15873219 -0.079821214 0.23028715
-0.027249008 -0.008097783 -0.22247466 -0.1517018 -0.13769808 -0.10081527 0.16757713 -0.07702303
-0.17613587 0.090686426 0.07546468 0.15266214 -0.12196936 0.051103786 -0.08580756 -0.052956343
-0.18783547 -0.10742389 -0.072185636 0.1007946 0.043060318 0.05822234 0.23525564 0.22972192
0.16076006 0.0075055957 -0.16305679 0.18420358 -0.058940515 -0.019055426 -0.20305726 -0.046557933
-0.15202509 0.21658821 -0.20376956 -0.18372583 -0.008003578 -0.12744786 0.08433701 -0.090727836
-0.110706426 0.0133496225 0.17062439 -0.16579857 0.11068727 0.1514249 0.2305633 -0.1649753
0.057084695 -0.17428458 0.20123087 -0.091430396 0.1419759 0.007017195 -0.018357113 -0.0075207353
0.040068075 0.11110912 0.037801906 0.07190214 -0.21202001 0.17171793 0.20550032 0.19483285
0.17423646 -0.17009015 -0.08737482 0.20782466 -0.17952465 0.21383409 -0.1853789 -0.16603068
0.11522965 -0.16934949 -0.053999558 0.17147146 0.18669714 0.22291677 -0.047828108 -0.18320212
0.23207502 -0.050210744 -0.09697619 0.05745803 -0.16483235 0.15492244 0.14772232 -0.18702532
-0.19359933 -0.020646676 0.099000946 -0.0068264455 -0.11951933 0.005388722 -0.22154415 -0.16658518
-0.15690449 0.19410796 0.20777293 -0.080060214 0.010571331 0.10511799 0.028241232 -0.118028514
00000000: 1aba f83d b20f d5bd 3429 3bbd ae92 e23d
00000010: 7139 63be 4bbf 103e 609d 46bd 7694 f53d
00000020: 4c36 063d 906c ecbc 1ee3 853d c081 3e3c
00000030: 624d b03d a41d bcbd 10c7 8cbc d0d4 adbc
00000040: 24ef 0b3d 00d5 76ba f5fc 523e 9637 963d
00000050: 6cc4 b3bd 86c5 11be 80d2 21bd 4c37 d0bd
00000060: b4af 9abd 10e8 383c 81e1 0f3e 0130 033e
00000070: d9f0 6bbe 9b9f 153e a2da 863d 49f1 643e
00000080: bb4f 1f3e 51e9 5bbe 7d7c 65be 9cd4 e8bd
00000090: b5f0 533e d0cf 20bd 7695 ce3d 1e53 e0bd
000000a0: 6fd3 6c3e c23c ccbd 4d00 353e 00eb 363b
000000b0: ec4d febd d61f f83d 481e 00be 3ef8 8d3d
000000c0: 6c63 8bbd a8b0 d3bc 2f0a 68be b726 e6bd
000000d0: 3bf8 023e f8ac 6abd d767 703e 7d78 413e
000000e0: 30d2 34bc 661a 21be 83fa 123e a6d0 953d
000000f0: f104 1cbe 05c6 1c3e 9187 123e 670f 563e
00000100: d24b 07be a8ea 1ebd 609e 95bb 5c02 0d3d
00000110: fe2b 37be 1a46 2bbe eb4c 033e 1863 62bd
00000120: 86cb eb3d 7028 5c3c 7e7f 9e3d dc49 543d
00000130: 1e84 af3d e249 ef3d 8d86 5fbe 16fa f23d
00000140: 88b4 29be 8d1b 36be 90d9 6a3c 6c84 24bd
00000150: 89c1 0d3e 98c7 0bbe 5b90 56be 55a7 2f3e
00000160: 1c28 0fbd 11c1 073e ba2f 9b3d 3ffd 34be
00000170: 5cf4 413d 04e5 673d a59a 21be 5309 e5bd
00000180: 5e98 a43d 74ee 2c3d ca55 cdbd 6220 92bd
00000190: 7f0e 5d3e 54a0 32bd 8513 083e be04 d13d
000001a0: 2904 1cbe 4842 4dbe 89ad 673e e0a5 493c
000001b0: 0971 253e 9c11 483d ce40 9b3d 0749 343e
000001c0: 39dc 643e 4c29 20be 486a f13c b31d 343e
000001d0: 59d9 2e3e 0bf1 153e 18ad 2ebe c0cd 2dbe
000001e0: 96f7 11be 8892 f23c dd8d 703e ee75 18be
000001f0: 9d9d 003e e496 05be fced 62be 8c31 4dbd
00000200: 6910 0b3e 5d12 603e b4e4 15be b482 513d
00000210: 5942 503e ffef 1f3e ab6b 163e 8584 2b3e
00000220: e1a9 183e 645e 793d d50b 25be f2ae 4abe
00000230: 0231 ddbd a0d7 e0bc 0ef1 13be ae9a b03d
00000240: 3a65 953d e09b 5abd 3e87 b93d d601 9c3d
00000250: f15b 133e b18a 223e 4e79 a3bd 65d0 6b3e
00000260: 5039 dfbc 90ac 04bc 66d0 63be b757 1bbe
00000270: ba00 0dbe 3c78 cebd 5799 2b3e 40be 9dbd
00000280: f65c 34be ceb9 b93d 3a8d 9a3d 7753 1c3e
00000290: 12cb f9bd 3452 513d e0bb afbd c0e8 58bd
000002a0: f157 40be 0e01 dcbd 10d6 93bd 666d ce3d
000002b0: 0460 303d 8c7a 6e3d dbe6 703e 393c 6b3e
000002c0: 499e 243e 80f1 f53b 5cf8 26be dd9f 3c3e
000002d0: 9c6b 71bd 201a 9cbc 3eee 4fbe 88b3 3ebd
000002e0: 77ac 1bbe 4dc9 5d3e f8a8 50be a022 3cbe
000002f0: 7021 03bc b181 02be e2b8 ac3d 84cf b9bd
00000300: 0dba e2bd 60b8 5a3c 29b8 2e3e 1ac7 29be
00000310: 02b0 e23d 210f 1b3e c918 6c3e 49ef 28be
00000320: a4d1 693d a877 32be 770f 4e3e dc3f bbbd
00000330: 2162 113e 80f0 e53b a861 96bc 8070 f6bb
00000340: 6c1e 243d 2e8d e33d 2cd6 1a3d 6e41 933d
00000350: c61b 59be d3d6 2f3e ad6e 523e 4382 473e
00000360: 0b6b 323e 1d2c 2ebe 92f1 b2bd fdcf 543e
00000370: 4fd5 37be 53f7 5a3e f7d3 3dbe f203 2abe
00000380: 86fd eb3d f469 2dbe a42e 5dbd 3796 2f3e
00000390: 892d 3f3e 4b44 643e 68e7 43bd 5699 3bbe
000003a0: 13a5 6d3e c8a9 4dbd 749b c6bd 1c59 6b3d
000003b0: d0c9 28be fda3 1e3e 8544 173e 9183 3fbe
000003c0: e73e 46be 3823 a9bc 02c1 ca3d 60b0 dfbb
000003d0: 8dc6 f4bd e093 b03b 78dc 62be 4e95 2abe
000003e0: 92ab 20be 3dc4 463e 6dc2 543e 9cf6 a3bd
000003f0: 6033 2d3c 1a48 d73d 285a e73c efb8 f1bd

fc1.bias f4 [64]
-0.15336546 -0.12820931 -0.0020383298 -0.12421578 0.21817751 -0.08508839 -0.13105756 -0.0627927
-0.19230321 0.121423915 0.2025143 -0.13593218 -0.087620914 0.21997331 -0.17050564 0.06383751
-0.19204198 -0.20978574 0.0003566444 -0.13452414 0.12765296 -0.07290405 0.0023223162 -0.123055056
0.09685828 0.21838354 -0.035433054 -0.14547792 -0.22988603 0.22586481 0.09934302 0.09734176
0.04012935 0.11827184 0.083700284 0.1150877 0.1474119 0.033422604 0.20301934 0.14656444
-0.0072152913 -0.10527575 0.015624836 0.18356766 0.14931233 -0.095512316 -0.04920791 0.0935833
0.088808134 0.22444536 0.11445396 0.07509144 0.054475203 -0.22151266 -0.08683686 0.02494584
-0.16396922 -0.2065147 0.15904789 0.08016373 -0.19020367 0.013989404 0.13881041 0.13578214
00000000: d60b 1dbe 4d49 03be 8095 05bb d864 febd
00000010: ed69 5f3e d242 aebd f433 06be 7699 80bd
00000020: 22eb 44be 1aad f83d e95f 4f3e ce31 0bbe
00000030: 9872 b3bd af40 613e 0899 2ebe 3ebd 823d
00000040: a7a6 44be 13d2 56be 00fc ba39 b2c0 09be
00000050: 75b7 023e b84e 95bd 0032 183b 4a04 fcbd
00000060: a25d c63d ef9f 5f3e 4022 11bd 2af8 14be
00000070: 3e67 6bbe 1b49 673e 5a74 cb3d 1e5b c73d
00000080: ac5e 243d 8238 f23d 0e6b ab3d 1ab3 eb3d
00000090: 25f3 163e 24e6 083d 4de4 4f3e fd14 163e
000000a0: 406e ecbb d09a d7bd 50ff 7f3c 29f9 3b3e
000000b0: 55e5 183e f69b c3bd 3c8e 49bd 9aa8 bf3d
000000c0: 0ae1 b53d 01d5 653e d666 ea3d 8ac9 993d
000000d0: 6421 5f3d 37d4 62be 86d7 b1bd 385b cc3c
000000e0: 8ce7 27be 9778 53be 73dd 223e e22c a43d
000000f0: c0c4 42be d033 653c 5124 0e3e 790a 0b3e

fc2.weight f4 [64, 64]
0.114151075 -0.04942538 0.055658966 -0.10139778 -0.015418693 -0.07949944 -0.023801968 0.07116045
0.062315613 -0.065751836 -0.030996054 -0.025006905 -0.047553346 -0.06847431 0.09178729 0.08640367
0.10435344 -0.06863895 0.09153578 -0.03790389 -0.0293677 -0.033654258 -0.006078124 -0.054737315
0.017094731 -0.080567345 0.051411003 -0.10482785 -0.045315415 -0.08730696 0.08432114 0.08588104
-0.09941949 -0.06820893 0.111873016 0.036423877 0.08607194 -0.09583211 0.056415558 0.07956758
-0.029002562 -0.005760148 0.09114732 0.03408496 0.035866573 0.00038020313 -0.052185863 -0.07650992
0.12474044 -0.009874806 0.1109287 0.10227482 -0.065363854 0.0084964335 -0.031973436 -0.0022696704
0.08238259 0.06883149 -0.07099868 -0.061851338 -0.088800386 -0.106129795 0.08018686 -0.0772398
0.0016335696 -0.00016981363 0.02138412 -0.007313475 0.06486714 0.017166704 0.08963591 0.026982397
-0.0015590787 0.017712727 0.08331306 0.018866763 0.08805972 -0.011853293 0.001083836 0.10501805
-0.11801137 0.012469932 0.11417106 -0.0627265 -0.023057252 -0.007531002 0.04118088 0.04724568
0.028317451 0.04930933 -0.053632036 0.052588597 -0.03963527 0.07854205 -0.03668572 -0.10643862
0.008927166 0.065043524 -0.004898995 0.0016225725 0.00044292212 0.06634168 0.009780571 -0.11166738
-0.089145586 0.0073887855 -0.010037199 0.11948219 -0.029384643 0.0956635 -0.10542081 -0.11880182
-0.011498719 -0.079147235 -0.036452994 0.014079839 -0.10842767 0.08589645 -0.07586193 0.09590922
0.040859655 -0.023442402 -0.109393656 0.020688832 -0.06983228 0.10803287 -0.10515639 -0.0330192
-0.068889976 -0.08039467 -0.065196246 -0.0123925805 0.008456215 0.021174252 0.063874856 -0.05105731
-0.07755706 -0.02633734 0.117795184 -0.015271589 -0.10523282 0.09808239 0.03041464 0.021694824
0.021455929 0.08721204 -0.056917965 0.09110202 0.12019968 -0.03223154 0.0788914 0.068964764
0.11706033 -0.029092446 -0.07435818 -0.046400115 -0.085043535 0.0042883605 0.1205177 0.12126711
0.094419286 0.012368798 0.002713561 0.08276509 0.07422298 -0.012404442 -0.031614512 0.049426407
-0.0043373406 -0.08781728 -0.058794618 0.10137366 0.10410003 -0.048707634 -0.026824802 -0.061952904
-0.04080917 0.11394483 -0.1111754 0.05964814 -0.11234847 -0.059636623 -0.025454476 0.008661538
-0.020299733 -0.057139263 -0.055754513 -0.076029375 -0.087250695 -0.077877685 0.11986621 -0.058896393
-0.103948504 0.08591284 0.048494875 0.08598313 -0.12433685 -0.11898525 -0.088718295 -0.06585042
-0.00027526915 0.054069787 0.07318273 -0.107513115 0.049851462 -0.07228856 0.028732508 0.039245903
0.02000396 0.044225633 -0.0062414855 0.08252348 0.026070267 0.109511405 0.027096093 -0.06617196
0.08027482 0.006771952 0.12080498 -0.013823837 0.12367682 -0.07297023 0.06282276 -0.0932506
0.0858167 0.022690326 0.070967376 -0.10764727 -0.12434402 0.06022972 -0.05142662 0.049505353
-0.07416108 -0.03864193 0.00056000054 0.07527569 0.07058963 -0.011165798 -0.035356358 -0.002167821
0.06442529 -0.10594626 -0.03819543 -0.12049955 0.018043235 -0.014785394 0.07081187 0.099858806
-0.10687916 -0.055320278 -0.020094946 -0.0012464821 -0.028533503 -0.078593224 -0.048299864 -0.0032191277
00000000: 0ac8 e93d 4472 4abd a8fa 633d a4a9 cfbd
00000010: b09e 7cbc 9ad0 a2bd 58fc c2bc 92bc 913d
00000020: a83e 7f3d e6a8 86bd 70eb fdbc 48db ccbc
00000030: 4cc7 42bd 423c 8cbd fafa bb3d 68f4 b03d
00000040: 42b7 d53d 9492 8cbd 1c77 bb3d 1c41 1bbd
00000050: 8894 f0bc 0cd9 09bd 002b c7bb 3c34 60bd
00000060: 400a 8c3c 7e00 a5bd 5894 523d fcaf d6bd
00000070: a89c 39bd fecd b2bd 90b0 ac3d 66e2 af3d
00000080: 729c cbbd 20b1 8bbd ae1d e53d 3431 153d
00000090: 7c46 b03d a043 c4bd 0014 673d 54f4 a23d
000000a0: c896 edbc a0bf bcbb 72ab ba3d ac9c 0b3d
000000b0: d4e8 123d 0056 c739 d8c0 55bd 3cb1 9cbd
000000c0: ea77 ff3d f0c9 21bc 962e e33d 7675 d13d
000000d0: 7cdd 85bd a034 0b3c 94f6 02bd c0be 14bb
000000e0: 34b8 a83d 86f7 8c3d c267 91bd d457 7dbd
000000f0: fadc b5bd 945a d9bd 0239 a43d e62f 9ebd
00000100: 801d d63a 0010 32b9 c02d af3c e0a5 efbb
00000110: 10d9 843d 30a1 8c3c 0893 b73d 300a dd3c
00000120: 005a ccba 481a 913c 0aa0 aa3d 788e 9a3c
00000130: a858 b43d 5034 42bc 800f 8e3a b413 d73d
00000140: f2af f1bd b04e 4c3c 84d2 e93d c076 80bd
00000150: 90e2 bcbc a0c6 f6bb 48ad 283d b084 413d
00000160: 00fa e73c 94f8 493d 44ad 5bbd 2467 573d
00000170: 9858 22bd a8da a03d c443 16bd 7efc d9bd
00000180: 4043 123c 8a35 853d c087 a0bb 80ac d43a
00000190: 0038 e839 26de 873d b03e 203c deb1 e4bd
000001a0: f691 b6bd a01d f23b 1073 24bc 14b3 f43d
000001b0: 10b8 f0bc 3aeb c33d dee6 d7bd 5e4e f3bd
000001c0: 2065 3cbc f217 a2bd bc4f 15bd 20af 663c
000001d0: 540f debd 7aea af3d 805d 9bbd 0e6c c43d
000001e0: 745c 273d 480a c0bc c809 e0bd a07b a93c
000001f0: 3a04 8fbd 5640 dd3d 3c5c d7bd 243f 07bd
00000200: 3016 8dbd f6a5 a4bd 9c85 85bd 400a 4bbc
00000210: f08b 0a3c a075 ad3c d2d0 823d 7821 51bd
00000220: 3cd6 9ebd 68c1 d7bc 9a3e f13d b035 7abc
00000230: 4e84 d7bd 6cdf c83d 2028 f93c 58b9 b13c
00000240: 58c4 af3c 3a9c b23d d022 69bd b293 ba3d
00000250: 402b f63d 3805 04bd d091 a13d 663d 8d3d
00000260: 54bd ef3d 4853 eebc 1a49 98bd 0c0e 3ebd
00000270: 4e2b aebd 6085 8c3b fcd1 f63d e45a f83d
00000280: e65e c13d 80a6 4a3c 00d6 313b be80 a93d
00000290: 3802 983d 003c 4bbc 387e 01bd 5873 4a3d
000002a0: 4020 8ebb 8cd9 b3bd a0d2 70bd fe9c cf3d
000002b0: 6632 d53d a881 47bd b0bf dbbc 54c2 7dbd
000002c0: 8427 27bd e85b e93d eeaf e3bd 9c51 743d
000002d0: f416 e6bd 8845 74bd e885 d0bc 20e9 0d3c
000002e0: a04b a6bc dc0a 6abd d85e 64bd 4ab5 9bbd
000002f0: 7eb0 b2bd 567e 9fbd 6a7c f53d 583d 71bd
00000300: f4e2 d4bd 12f3 af3d 90a2 463d ec17 b03d
00000310: 52a4 febd 8aae f3bd f0b1 b5bd 96dc 86bd
00000320: 0052 90b9 4878 5d3d d4e0 953d d62f dcbd
00000330: 0c31 4c3d 060c 94bd 7060 eb3c 50c0 203d
00000340: 58df a33c f025 353d 6085 ccbb 1202 a93d
00000350: 5091 d53c 8447 e03d a0f8 dd3c 2a85 87bd
00000360: 2067 a43d 40e7 dd3b 9a68 f73d 607d 62bc
00000370: 464a fd3d 6a71 95bd 38a9 803d 2cfa bebd
00000380: aac0 af3d 10e1 b93c 5857 913d 2c76 dcbd
00000390: 14a8 febd 70b3 763d b8a4 52bd 20c6 4a3d
000003a0: c4e1 97bd 0047 1ebd 00cd 123a 242a 9a3d
000003b0: 4c91 903d c0f0 36bc d4d1 10bd 0012 0ebb
000003c0: 68f1 833d 5afa d8bd d072 1cbd 78c8 f6bd
000003d0: 68cf 933c 703e 72bc d005 913d c682 cc3d
000003e0: 76e3 dabd 8497 62bd 289e a4bc 0061 a3ba
000003f0: 18bf e9bc 7cf5 a0bd 14d6 45bd 00f8 52bb

fc2.bias f4 [64]
0.037920028 0.09076227 -0.113935456 -0.09733532 0.12086034 0.10555278 -0.011214271 0.06935604
0.08936699 0.09017523 -0.059419006 -0.046106115 -0.065322354 -0.034232408 0.117549196 -0.002536431
-0.09990281 0.09451491 0.049213752 0.020239249 -0.06554726 0.090359196 -0.10174523 0.062066853
-0.01504299 -0.045516804 -0.112531796 0.017121151 -0.05888681 -0.04956618 0.07062751 -0.08020775
0.11826043 0.10135232 0.091009304 0.012968719 -0.0956586 -0.028785855 -0.060397714 -0.01757069
-0.11650531 -0.05614388 -0.02162391 6.914139e-06 -0.03224294 0.026214406 -0.06813282 -0.08515112
-0.09105995 0.11562936 0.074139595 -0.11030622 -0.10568154 -0.0049674064 -0.06703535 0.042378306
-0.044543087 0.0120688975 -0.031659022 -0.097129285 -0.011727542 0.113861546 0.09728657 -0.08524662
00000000: 0852 1b3d 92e1 b93d fe56 e9bd be57 c7bd
00000010: a085 f73d 0e2c d83d 10bc 37bc 8a0a 8e3d
00000020: 0a06 b73d caad b83d 5861 73bd c4d9 3cbd
00000030: bac7 85bd 4837 0cbd a2bd f03d 403a 26bb
00000040: d899 ccbd 0891 c13d 5c94 493d c8cc a53c
00000050: a43d 86bd 3e0e b93d ce5f d0bd d039 7e3d
00000060: e076 76bc d46f 3abd 1277 e6bd a841 8c3c
00000070: 4c33 71bd e805 4bbd 28a5 903d f643 a4bd
00000080: 8632 f23d ce91 cf3d 1663 ba3d c07a 543c
00000090: a8e8 c3bd 50d0 ebbc 9863 77bd 68f0 8fbc
000000a0: 569a eebd 20f7 65bd a024 b1bc 0000 e836
000000b0: 2c11 04bd 98bf d63c 3889 8bbd b663 aebd
000000c0: a47d babd 16cf ec3d 80d6 973d 3ae8 e1bd
000000d0: 906f d8bd a0c5 a2bb d449 89bd e094 2d3d
000000e0: d072 36bd a0bc 453c e4ac 01bd b8eb c6bd
000000f0: e024 40bc 3e30 e93d 2e3e c73d c895 aebd

fc3.weight f4 [2, 64]
-0.0022398646 -0.0027912352 0.0011698017 -0.00012586219 -0.0014103173 -0.0028029592 -0.001861413 0.00081068045
-0.0005519467 -0.002606985 -0.0003035015 -0.00015171547 -0.0027993727 0.0017985613 0.0029974333 0.0021289047
-0.002696813 -0.0018454395 -0.0023444106 0.002527059 -0.0014219334 0.0022352212 -0.0012482654 0.0011786437
0.0021205419 -0.0014621773 0.0013195192 0.0014692252 0.0006884476 -0.0011336353 -0.0023087352 0.0006258022
-0.002714564 -0.0009891419 0.0004853492 0.0018505557 0.0022919737 -0.002516231 -0.0013287367 -0.00026961602
-5.861977e-05 -0.00071938056 -0.0019019411 -0.0006659585 -0.00062444014 -0.0018195902 0.00097162696 -0.0021529226
-0.0025714426 0.000543752 -0.0014849206 0.0026412467 -0.0019648394 -0.0020424053 0.0027978523 0.00054749707
0.002873078 0.0026480905 0.0029774457 0.0023033689 0.0017683175 -0.0018112074 -0.0008469329 -0.000311804
-2.7944334e-06 0.002345378 0.0009090579 -0.0027856 0.00075815246 0.00017181598 0.0013573179 -0.0012819375
0.0025162124 -0.002119345 0.0023463322 0.0026949067 -0.0024345606 -0.0020268252 0.0019723834 -0.0023897581
-0.00018629082 -0.0017196937 0.001575659 0.0028448142 0.0024459735 0.0025872188 0.0016411906 -0.002569921
0.000813131 0.002745587 0.0016890881 -0.0018767145 0.0012896624 0.00066878763 -0.0018710769 -0.0026302256
-0.0016884331 -0.0023339307 -0.000999568 0.000282889 -0.001516516 -0.000801526 -0.0010131143 0.0013547847
-0.002377209 0.0028576613 0.0029305052 0.0025614998 0.0022951993 -0.00034093205 -0.0015187158 0.002823304
-0.002884768 -0.002870216 0.0024559223 -0.001164058 0.0019866824 -0.0017233222 -0.0020374071 -0.002138568
-8.9136185e-05 -4.32448e-05 -0.0011059835 0.0006146494 0.0017689401 -0.0013722446 0.0017256071 -0.0011284783
00000000: b1ca 12bb 28ed 36bb 0854 993a e0f9 03b9
00000010: 65da b8ba dab1 37bb a8fa f3ba d883 543a
00000020: 84b0 10ba f3d9 2abb 481f 9fb9 d015 1fb9
00000030: ae75 37bb b4bd eb3a 9670 443b 1885 0b3b
00000040: 04bd 30bb ade2 f1ba afa4 19bb 049d 253b
00000050: 2b60 baba ca7c 123b d69c a3ba b87c 9a3a
00000060: caf8 0a3b 87a6 bfba b8f3 ac3a 0493 c03a
00000070: f078 343a 7d96 94ba 264e 17bb e00c 243a
00000080: d4e6 31bb 18a6 81ba 7876 fe39 588e f23a
00000090: f034 163b 5ae7 24bb 0129 aeba 405b 8db9
000000a0: 80de 75b8 d094 3cba 8e4a f9ba b893 2eba
000000b0: 78b1 23ba 517f eeba c8b4 7e3a 0c18 0dbb
000000c0: a685 28bb 948a 0e3a aba1 c2ba c418 2d3b
000000d0: 89c4 00bb e0d9 05bb 2c5c 373b e885 0f3a
000000e0: 404a 3c3b 968b 2d3b 4021 433b 1ef4 163b
000000f0: e4c6 e73a 0966 edba b404 5eba a079 a3b9
00000100: 0088 3bb6 eab4 193b d84d 6e3a 9d8e 36bb
00000110: c0be 463a 8029 3439 08e8 b13a af06 a8ba
00000120: 0ae7 243b b5e4 0abb ecc4 193b 089d 303b
00000130: 268d 1fbb 7cd4 04bb 1a43 013b 7d9d 1cbb
00000140: 1057 43b9 5867 e1ba 5886 ce3a 1070 3a3b
00000150: a04c 203b 548e 293b 381d d73a 1f6c 28bb
00000160: 4c28 553a 4eef 333b 6464 dd3a 17fc f5ba
00000170: e409 a93a 9451 2f3a ec3e f5ba dd5f 2cbb
00000180: 6a4e ddba dcf4 18bb f003 83ba b850 9439
00000190: d5c5 c6ba 801d 52ba 7aca 84ba 0893 b13a
000001a0: f3ca 1bbb 9a47 3b3b b80d 403b d6de 273b
000001b0: 0e6b 163b 20bf b2b9 a50f c7ba 2e07 393b
000001c0: 600e 3dbb 3c1a 3cbb 8af3 203b 4e93 98ba
000001d0: 0033 023b 19e1 e1ba 0586 05bb 3827 0cbb
000001e0: a0ee bab8 c061 35b8 a6f6 90ba 6c20 213a
000001f0: c8db e73a e3dc b3ba c42d e23a 73e9 93ba

fc3.bias f4 [2]
0.049839586 0.095248505
00000000: 9824 4c3d a611 c33d

in_fn.weight f4 [60]
1.0 1.0 1.0 1.0 1.0 1.0 1.0 1.0
1.0 1.0 1.0 1.0 1.0 1.0 1.0 1.0
1.0 1.0 1.0 1.0 1.0 1.0 1.0 1.0
1.0 1.0 1.0 1.0 1.0 1.0 1.0 1.0
1.0 1.0 1.0 1.0 1.0 1.0 1.0 1.0
1.0 1.0 1.0 1.0 1.0 1.0 1.0 1.0
1.0 1.0 1.0 1.0 1.0 1.0 1.0 1.0
1.0 1.0 1.0 1.0
00000000: 0000 803f 0000 803f 0000 803f 0000 803f
00000010: 0000 803f 0000 803f 0000 803f 0000 803f
00000020: 0000 803f 0000 803f 0000 803f 0000 803f
00000030: 0000 803f 0000 803f 0000 803f 0000 803f
00000040: 0000 803f 0000 803f 0000 803f 0000 803f
00000050: 0000 803f 0000 803f 0000 803f 0000 803f
00000060: 0000 803f 0000 803f 0000 803f 0000 803f
00000070: 0000 803f 0000 803f 0000 803f 0000 803f
00000080: 0000 803f 0000 803f 0000 803f 0000 803f
00000090: 0000 803f 0000 803f 0000 803f 0000 803f
000000a0: 0000 803f 0000 803f 0000 803f 0000 803f
000000b0: 0000 803f 0000 803f 0000 803f 0000 803f
000000c0: 0000 803f 0000 803f 0000 803f 0000 803f
000000d0: 0000 803f 0000 803f 0000 803f 0000 803f
000000e0: 0000 803f 0000 803f 0000 803f 0000 803f

in_fn.bias f4 [60]
0.0 0.0 0.0 0.0 0.0 0.0 0.0 0.0
0.0 0.0 0.0 0.0 0.0 0.0 0.0 0.0
0.0 0.0 0.0 0.0 0.0 0.0 0.0 0.0
0.0 0.0 0.0 0.0 0.0 0.0 0.0 0.0
0.0 0.0 0.0 0.0 0.0 0.0 0.0 0.0
0.0 0.0 0.0 0.0 0.0 0.0 0.0 0.0
0.0 0.0 0.0 0.0 0.0 0.0 0.0 0.0
0.0 0.0 0.0 0.0
00000000: 0000 0000 0000 0000 0000 0000 0000 0000
00000010: 0000 0000 0000 0000 0000 0000 0000 0000
00000020: 0000 0000 0000 0000 0000 0000 0000 0000
00000030: 0000 0000 0000 0000 0000 0000 0000 0000
00000040: 0000 0000 0000 0000 0000 0000 0000 0000
00000050: 0000 0000 0000 0000 0000 0000 0000 0000
00000060: 0000 0000 0000 0000 0000 0000 0000 0000
00000070: 0000 0000 0000 0000 0000 0000 0000 0000
00000080: 0000 0000 0000 0000 0000 0000 0000 0000
00000090: 0000 0000 0000 0000 0000 0000 0000 0000
000000a0: 0000 0000 0000 0000 0000 0000 0000 0000
000000b0: 0000 0000 0000 0000 0000 0000 0000 0000
000000c0: 0000 0000 0000 0000 0000 0000 0000 0000
000000d0: 0000 0000 0000 0000 0000 0000 0000 0000
000000e0: 0000 0000 0000 0000 0000 0000 0000 0000

in_fn.running_mean f4 [60]
0.0 0.0 0.0 0.0 0.0 0.0 0.0 0.0
0.0 0.0 0.0 0.0 0.0 0.0 0.0 0.0
0.0 0.0 0.0 0.0 0.0 0.0 0.0 0.0
0.0 0.0 0.0 0.0 0.0 0.0 0.0 0.0
0.0 0.0 0.0 0.0 0.0 0.0 0.0 0.0
0.0 0.0 0.0 0.0 0.0 0.0 0.0 0.0
0.0 0.0 0.0 0.0 0.0 0.0 0.0 0.0
0.0 0.0 0.0 0.0
00000000: 0000 0000 0000 0000 0000 0000 0000 0000
00000010: 0000 0000 0000 0000 0000 0000 0000 0000
00000020: 0000 0000 0000 0000 0000 0000 0000 0000
00000030: 0000 0000 0000 0000 0000 0000 0000 0000
00000040: 0000 0000 0000 0000 0000 0000 0000 0000
00000050: 0000 0000 0000 0000 0000 0000 0000 0000
00000060: 0000 0000 0000 0000 0000 0000 0000 0000
00000070: 0000 0000 0000 0000 0000 0000 0000 0000
00000080: 0000 0000 0000 0000 0000 0000 0000 0000
00000090: 0000 0000 0000 0000 0000 0000 0000 0000
000000a0: 0000 0000 0000 0000 0000 0000 0000 0000
000000b0: 0000 0000 0000 0000 0000 0000 0000 0000
000000c0: 0000 0000 0000 0000 0000 0000 0000 0000
000000d0: 0000 0000 0000 0000 0000 0000 0000 0000
000000e0: 0000 0000 0000 0000 0000 0000 0000 0000

in_fn.running_var f4 [60]
1.0 1.0 1.0 1.0 1.0 1.0 1.0 1.0
1.0 1.0 1.0 1.0 1.0 1.0 1.0 1.0
1.0 1.0 1.0 1.0 1.0 1.0 1.0 1.0
1.0 1.0 1.0 1.0 1.0 1.0 1.0 1.0
1.0 1.0 1.0 1.0 1.0 1.0 1.0 1.0
1.0 1.0 1.0 1.0 1.0 1.0 1.0 1.0
1.0 1.0 1.0 1.0 1.0 1.0 1.0 1.0
1.0 1.0 1.0 1.0
00000000: 0000 803f 0000 803f 0000 803f 0000 803f
00000010: 0000 803f 0000 803f 0000 803f 0000 803f
00000020: 0000 803f 0000 803f 0000 803f 0000 803f
00000030: 0000 803f 0000 803f 0000 803f 0000 803f
00000040: 0000 803f 0000 803f 0000 803f 0000 803f
00000050: 0000 803f 0000 803f 0000 803f 0000 803f
00000060: 0000 803f 0000 803f 0000 803f 0000 803f
00000070: 0000 803f 0000 803f 0000 803f 0000 803f
00000080: 0000 803f 0000 803f 0000 803f 0000 803f
00000090: 0000 803f 0000 803f 0000 803f 0000 803f
000000a0: 0000 803f 0000 803f 0000 803f 0000 803f
000000b0: 0000 803f 0000 803f 0000 803f 0000 803f
000000c0: 0000 803f 0000 803f 0000 803f 0000 803f
000000d0: 0000 803f 0000 803f 0000 803f 0000 803f
000000e0: 0000 803f 0000 803f 0000 803f 0000 803f

fc1.weight f4 [64, 60]
0.038350016 -0.0423351 -0.06896491 0.12486826 -0.08461866 0.031000346 -0.12254267 0.06853591
0.08548157 -0.12272663 -0.08525489 -0.12413229 0.031754434 -0.117796905 0.051855385 0.122664705
-0.01554361 0.06330669 -0.10249976 0.040629864 -0.01566264 0.07456158 0.12861426 -0.093713924
-0.01887013 -0.077827066 0.052118808 0.11584316 -0.01957506 0.11559339 0.08881785 -0.017156005
0.070426464 0.10845201 0.009160817 -0.10855779 0.035067633 -0.11555802 0.0071619004 -0.086276025
0.119920865 -0.0747433 -0.060022846 0.084959194 -0.08351978 0.12629612 0.020524412 0.06773803
-0.077013776 -0.004642777 0.059371665 0.06480986 -0.010076292 0.11320342 0.056085765 -0.036762618
-0.12544964 0.10469669 0.09669033 -0.07020752 0.0061556995 0.060257837 0.09786068 -0.050440446
0.057279915 -0.073516816 0.010918915 -0.0271817 0.026128247 0.07273483 -0.003275767 0.09853521
-0.049971238 -0.07350977 0.10636282 0.003253132 -0.03600873 0.032447487 0.030910343 -0.02025602
-0.06684734 -0.06554795 -0.023911506 0.014792129 -0.118986584 0.10004698 -0.000134781 -8.915365e-05
0.029747099 0.020045727 0.03125474 -0.00035835803 -0.014879525 -0.08597571 0.060850605 0.11885956
0.08409168 -0.12082496 0.087129176 0.042662367 -0.11679584 0.12012853 0.104779795 0.11483486
-0.11358193 -0.038050845 0.00987947 -0.07005274 -0.0046841353 -0.024753287 0.04097806 -0.08517682
-0.012971014 0.10802901 0.08513062 0.029744849 -0.068616584 -0.075889274 0.114154726 0.014382109
-0.009276144 -0.10707929 -0.043147422 -0.12390128 0.05849968 0.014130384 -0.025478654 0.041800037
0.022018194 0.028225228 0.098439395 -0.07093352 -0.011270821 0.10942443 -0.010576151 0.0034703463
0.07960813 0.011495873 -0.0099901855 0.06932998 0.04508087 -0.12543139 0.049956977 -0.024473362
0.022442102 0.008372903 0.08554427 -0.11220294 0.05355546 0.068058014 -0.0950312 -0.014058538
0.06813662 0.020244882 0.08486149 0.10400881 0.11103749 0.12731837 0.12432037 -0.018455803
-0.027992174 -0.09349093 -0.028269038 0.036733657 0.066702664 0.009518087 0.079101175 0.11418505
0.08499831 0.027882054 -0.005884461 -0.085266784 0.07514323 -0.05570083 -0.0027064085 0.10020608
0.12814493 -0.0142387375 0.09165388 0.10437204 -0.081395976 -0.018471733 0.0441806 0.08369635
-0.096025184 -0.04767578 0.09483886 0.09981802 -0.05541058 0.076795265 0.011216745 -0.05729779
0.058871776 0.10006352 -0.0942813 -0.08619785 0.09718536 0.0064033866 0.06725152 -0.104438454
-0.10175037 0.09217098 0.0030105412 0.008155927 -0.0522291 0.07685454 0.03083323 -0.12512201
0.0648361 0.015682712 -0.050996922 0.09308581 0.048934087 0.053579256 -0.09757907 0.071040526
-0.10975689 -0.052213013 0.039420128 -0.06771666 0.07544653 0.07227872 0.023193508 0.09334132
-0.005180411 -0.040989764 0.08663541 -0.00021728873 -0.076235086 -0.053259403 0.03997934 -0.011843063
-0.023988351 0.046727672 -0.12164648 -0.047087148 -0.12347658 0.0060463697 0.037470073 0.022113025
0.013244167 0.035232723 0.023196593 0.03010875 -0.04703693 0.11204758 -0.041746527 0.06252065
0.12326984 0.017799929 -0.071741104 -0.031430006 -0.11667666 -0.089126885 0.013287574 0.10872917
00000000: e814 1d3d 9267 2dbd 7a3d 8dbd eeba ff3d
00000010: 8c4c adbd 70f4 fd3c a7f7 fabd 8e5c 8c3d
00000020: f610 af3d 1958 fbbd 1e9a aebd 1239 febd
00000030: f010 023d 813f f1bd 5066 543d a237 fb3d
00000040: a0aa 7ebc f0a6 813d 65eb d1bd 806b 263d
00000050: f04e 80bc beb3 983d 75b3 033e 16ed bfbd
00000060: 8895 9abc cc63 9fbd 887a 553d 2e3f ed3d
00000070: e05b a0bc 3abc ec3d 22e6 b53d c08a 8cbc
00000080: c03b 903d 161c de3d 4017 163c 8c53 debd
00000090: 14a3 0f3d afa9 ecbd 60ae ea3b 7cb1 b0bd
000000a0: 1299 f53d 0413 99bd 84da 75bd 16ff ad3d
000000b0: 6b0c abbd c553 013e d022 a83c 3cba 8a3d
000000c0: 66b9 9dbd 7022 98bb b42f 733d 08bb 843d
000000d0: 0817 25bc 32d7 e73d 30ba 653d 6694 16bd
000000e0: df75 00be 386b d63d 9405 c63d f6c8 8fbd
000000f0: c0b5 c93b ecd0 763d 2e6b c83d a49a 4ebd
00000100: 589e 6a3d fc8f 96bd 40e5 323c 28ac debc
00000110: e80a d63c 00f6 943d 40ae 56bb d4cc c93d
00000120: a4ae 4cbd 4a8c 96bd c0d4 d93d 8032 553b
00000130: e47d 13bd a8e7 043d b037 fd3c f4ef a5bc
00000140: 42e7 88bd 013e 86bd 10e2 c3bc b05a 723c
00000150: 3daf f3bd 6ee5 cc3d 0054 0db9 00f8 bab8
00000160: 30b0 f33c f036 a43c f804 003d 00e2 bbb9
00000170: 40c9 73bc 0814 b0bd 7c3e 793d a46c f33d
00000180: 4238 ac3d 1473 f7bd c870 b23d bcbe 2e3d
00000190: a832 efbd f205 f63d ca96 d63d 8a2e eb3d
000001a0: a59d e8bd 34db 1bbd 80dd 213c d077 8fbd
000001b0: 607d 99bb 68c7 cabc 9cd8 273d 2f71 aebd
000001c0: 6084 54bc 503e dd3d f658 ae3d 78ab f33c
000001d0: da86 8cbd d66b 9bbd f4c9 e93d f0a2 6b3c
000001e0: f8fa 17bc 634c dbbd 5abb 30bd f4bf fdbd
000001f0: 5c9d 6f3d 2083 673c 9cb8 d0bc 8436 2b3d
00000200: 805f b43c 9838 e73c 989a c93d 9845 91bd
00000210: 40a9 38bc ea19 e03d 9847 2dbc c06e 633b
00000220: 9609 a33d 3059 3c3c e0ad 23bc e0fc 8d3d
00000230: b8a6 383d 1671 00be b09f 4c3d 5c7c c8bc
00000240: 80d8 b73c 802e 093c d631 af3d a8ca e5bd
00000250: f85c 5b3d 0062 8b3d b89f c2bd c855 66bc
00000260: 368b 8b3d 98d8 a53c dccb ad3d 9202 d53d
00000270: a067 e33d bf5f 023e ae9b fe3d a030 97bc
00000280: d84f e5bc 2c78 bfbd 7894 e7bc 0876 163d
00000290: 689b 883d c0f1 1b3c ccff a13d dad9 e93d
000002a0: 9813 ae3d e868 e43c 70d2 c0bb 5aa0 aebd
000002b0: b2e4 993d 8e26 64bd 005e 31bb d838 cd3d
000002c0: 6d38 033e 9849 69bc 08b5 bb3d 02c1 d53d
000002d0: efb2 a6bd 0852 97bc b8f6 343d fe68 ab3d
000002e0: daa8 c4bd ae47 43bd e03a c23d 646d cc3d
000002f0: 34f6 62bd d646 9d3d 70c6 373c 16b1 6abd
00000300: 8823 713d 1aee cc3d 8e16 c1bd 8088 b0bd
00000310: 1e09 c73d 80d3 d13b 2abb 893d d4e3 d5bd
00000320: 7f62 d0bd 24c4 bc3d 804c 453b 70a0 053c
00000330: 2eee 55bd ea65 9d3d f895 fc3c fc1f 00be
00000340: cac8 843d 0879 803c 26e2 50bd c6a3 be3d
00000350: 1c6f 483d ec75 5b3d 89d7 c7bd b27d 913d
00000360: 38c8 e0bd 50dd 55bd 0077 213d 08af 8abd
00000370: b683 9a3d de06 943d 5000 be3c bc29 bf3d
00000380: 70c0 a9bb e2e4 27bd e86d b13d 00d8 63b9
00000390: 2421 9cbd 8826 5abd 60c1 233d 6809 42bc
000003a0: 3883 c4bc 8465 3f3d ca21 f9bd 74de 40bd
000003b0: 4ae1 fcbd a020 c63b 387a 193d 6026 b53c
000003c0: 10fe 583c 3050 103d c806 be3c a0a6 f63c
000003d0: cca9 40bd 3479 e53d 68fe 2abd d40a 803d
000003e0: e674 fc3d 28d1 913c 00ed 92bd c0bc 00bd
000003f0: 2cf4 eebd 2888 b6bd 20b4 593c 66ad de3d

fc1.bias f4 [64]
0.11379306 0.06416975 -0.08013655 -0.032781914 0.10397184 -0.049347177 0.07160683 -0.059243746
0.0012974888 -0.11083109 -0.075252876 -0.002218768 0.038674697 0.037779734 -0.082892396 0.03519924
0.023717493 0.00063462555 -0.0006220937 -0.114450596 0.05832261 0.017006725 0.05279538 0.0067388266
0.049586862 -0.07983357 0.060279652 -0.016051278 -0.11563666 0.09854713 -0.0150156915 -0.12451594
0.02147384 -0.018925518 0.0714308 -0.048979208 -0.1257523 0.08958046 0.0947741 -0.12577584
0.087564915 -0.03137388 0.025526702 0.124553576 0.017373502 0.036365896 -0.10289768 -0.0135037005
0.10730475 -0.02641444 0.12561147 -0.0007817596 0.071676075 0.044136524 -0.08239755 0.06549817
-0.066419296 0.11631456 -0.07114895 0.055634767 0.03992419 0.10640073 0.069010004 -0.019756109
00000000: 560c e93d 6e6b 833d a21e a4bd 5446 06bd
00000010: 30ef d43d 4420 4abd 9aa6 923d 92a9 72bd
00000020: 8010 aa3a 69fb e2bd 2e1e 9abd c068 11bb
00000030: 5c69 1e3d ecbe 1a3d 7dc3 a9bd 142d 103d
00000040: 304b c23c 005d 263a 0014 23ba 1365 eabd
00000050: b0e3 6e3d b051 8b3c f83f 583d 60d1 dc3b
00000060: 981b 4b3d c87f a3bd cce7 763d f87d 83bc
00000070: ead2 ecbd 14d3 c93d 6004 76bc 3702 ffbd
00000080: e8e9 af3c b009 9bbc 504a 923d 6c9e 48bd
00000090: 36c5 00be f675 b73d ec18 c23d 62cb 00be
000000a0: 3c55 b33d e681 00bd 601d d13c f215 ff3d
000000b0: e052 8e3c 68f4 143d 05bc d2bd a03e 5dbc
000000c0: 98c2 db3d 1863 d8bc 4ba0 003e 00ef 4cba
000000d0: e8ca 923d 80c8 343d 0cc0 a8bd e823 863d
000000e0: d706 88bd 5436 ee3d 8ab6 91bd 48e1 633d
000000f0: 8c87 233d a0e8 d93d 1e55 8d3d 90d7 a1bc

fc2.weight f4 [64, 64]
-0.062445477 0.022941053 0.117890045 -0.031699702 0.05990544 -0.029354826 0.024952635 0.07773259
0.091089666 0.006975308 0.013690665 0.01549989 0.08636129 0.1214 -0.033695266 0.082843184
0.111753196 -0.098127976 -0.12114143 0.027908668 -0.034482718 0.0056898296 0.04083766 0.031088516
-0.07867232 -0.07488254 0.017333195 0.07296234 0.07357849 0.0738395 0.04146959 -0.044460952
0.062173486 0.08667806 0.06005989 0.029465988 -0.11652841 0.009535044 -0.08842537 0.11212157
0.078462645 -0.0074676275 0.07482542 -0.099662125 -0.11511956 -0.06652272 0.063741595 0.07437968
-0.03197159 -0.007973596 0.044618323 0.01938039 0.03160806 0.10415383 -0.062235087 -0.12075946
0.06770818 0.11576329 0.10451548 -0.031349584 -0.030751988 -0.01413469 -0.071245775 -0.10638973
0.0050525814 -0.018140242 -0.014410913 -0.05309838 -0.09441766 0.073055044 0.008570164 -0.020146087
0.1024414 0.0036218464 0.043475628 0.110036254 0.05393617 -0.0024179071 0.059605762 0.057465672
0.026533201 -0.12218538 0.06180446 -0.06943266 0.05401379 -0.019459233 0.04739873 0.025981754
-0.05162181 0.07538934 -0.090499386 -0.10068332 0.029094905 0.110589564 -0.011721417 0.10040426
-0.042960867 0.046721578 -0.062420323 0.003941804 -0.055765554 -0.07421923 -0.07520813 0.05834672
-0.082546055 -0.013088539 0.06753467 0.1070279 0.004870698 -0.111865655 0.08689244 0.10166596
0.06988172 -0.060438648 -0.047854617 0.06748301 -0.022119299 -0.109265715 -0.0014735758 -0.008376077
0.0015112609 -0.0006041527 -0.12346882 -0.12347686 -0.062457547 -0.08509117 -0.052714765 -0.11185628
0.01626958 -0.0715507 -0.08412853 -0.04616767 0.05701387 0.08980736 0.01015906 0.121276304
-0.059463933 0.040894955 0.06686416 0.027898401 0.059075832 -0.0041242987 -0.017558053 0.036934346
0.11276916 0.026712984 -0.022807628 -0.011903107 -0.08759594 -0.04128705 -0.1202333 -0.03463599
0.06331937 0.115159765 0.0065947026 0.021009907 -0.0059337616 -0.110614434 0.100927174 0.002122581
-0.08373074 -0.04737921 -0.029684827 0.0016225725 0.017238751 -0.001588881 0.10812551 -0.09588583
-0.10939731 -0.11644992 0.025764719 0.09881894 0.10557076 0.0061383992 0.00036901236 0.07379405
0.06343445 -0.09219681 -0.03603497 -0.115861654 0.11838846 0.08167049 -0.043141067 -0.021296144
0.0033877194 0.10082723 0.073621884 -0.100473195 -0.026194021 0.03992839 0.107342586 -0.042312175
0.062165797 0.01148425 -0.051393747 0.04127243 0.018194243 -0.0675904 0.00975211 0.0064353496
-0.01858221 0.030389562 -0.059450492 -0.05398336 -0.033334553 0.041988164 -0.008878484 -0.11793193
-0.026973039 0.0044439137 -0.072761 -0.029037043 0.029639348 0.09667164 0.071173325 -0.05571957
-0.08827913 0.05732456 0.011073232 -0.060008124 0.059193507 -0.11013602 0.05259353 0.032374874
0.110805765 -0.02865623 -0.08153677 0.12384373 -0.026391968 -0.1226069 -0.04582475 0.10002568
-0.083447725 0.027336717 -0.12299316 -0.03770733 -0.04861474 -0.036955476 -0.06386031 -0.09082577
0.039106622 0.0569084 0.021646738 0.035896763 -0.07942416 0.050997064 0.033086613 0.09690784
0.06357144 0.12484419 0.056013554 -0.10818021 0.07405624 -0.017842278 0.0068843663 0.053542435
00000000: d4c6 7fbd e0ee bb3c 5670 f13d 8cd7 01bd
00000010: 685f 753d 8879 f0bc 7869 cc3c 4432 9f3d
00000020: 388d ba3d 2091 e43b d04e 603c 40f3 7d3c
00000030: 30de b03d 90a0 f83d 0c04 0abd b0a9 a93d
00000040: dcde e43d 52f7 c8bd 0019 f8bd b8a0 e43c
00000050: c03d 0dbd c071 ba3b 6445 273d 58ad fe3c
00000060: f41e a1bd 045c 99bd 58fe 8d3c 486d 953d
00000070: 52b0 963d 2a39 973d 04dc 293d b01c 36bd
00000080: a0a9 7e3d 4484 b13d 5c01 763d a862 f13c
00000090: 72a6 eebd e038 1c3c 5c18 b5bd fe9f e53d
000000a0: 06b1 a03d 00b3 f4bb 123e 993d a81b ccbd
000000b0: cec3 ebbd 103d 88bd f48a 823d 6054 983d
000000c0: a4f4 02bd b0a3 02bc b4c1 363d a0c3 9e3c
000000d0: 7477 013d 9a4e d53d 38ea 7ebd bc50 f7bd
000000e0: 96aa 8a3d 4e15 ed3d 360c d63d 6c68 00bd
000000f0: 98eb fbbc 3095 67bc 4ee9 91bd dce2 d9bd
00000100: 2090 a53b d89a 94bc c01b 6cbc b07d 59bd
00000110: 0c5e c1bd e29d 953d e069 0c3c 6809 a5bc
00000120: cccc d13d 805c 6d3b 8013 323d b05a e13d
00000130: 2cec 5c3d c075 1ebb 2c25 743d 2061 6b3d
00000140: 285c d93c 543c fabd ac26 7d3d b632 8ebd
00000150: 903d 5d3d f868 9fbc 2c25 423d b0d7 d43c
00000160: 6471 53bd ba65 9a3d be57 b9bd 0e33 cebd
00000170: 7058 ee3c c87c e23d 300b 40bc c0a0 cd3d
00000180: bcf7 2fbd 205f 3f3d 74ac 7fbd 402a 813b
00000190: 6c6a 64bd 4000 98bd b806 9abd f8fc 6e3d
000001a0: e80d a9bd 5071 56bc 9e4f 8a3d 7231 db3d
000001b0: 609a 9f3b d219 e5bd aaf4 b13d 3e36 d03d
000001c0: 261e 8f3d 848e 77bd 3403 44bd 8834 8a3d
000001d0: 8833 b5bc b4c6 dfbd 0025 c1ba d03b 09bc
000001e0: 8015 c63a 0060 1eba 38dd fcbd 70e1 fcbd
000001f0: 7cd3 7fbd 4844 aebd 70eb 57bd e814 e5bd
00000200: c847 853c 2c89 92bd 944b acbd 501a 3dbd
00000210: 6087 693d ecec b73d 3072 263c b65f f83d
00000220: 7490 73bd 7881 273d 14f0 883d 308b e43c
00000230: 80f9 713d 2025 87bb e8d5 8fbc 7848 173d
00000240: 84f3 e63d 30d5 da3c 10d7 babc 4005 43bc
00000250: 8065 b3bd 9c1c 29bd e03c f6bd 78de 0dbd
00000260: 96ad 813d e2d8 eb3d 6018 d83b f81c ac3c
00000270: 0070 c2bb d289 e2bd e8b2 ce3d 001b 0b3b
00000280: 067b abbd b410 42bd 982d f3bc 80ac d43a
00000290: 4838 8d3c 0042 d0ba e870 dd3d ca5f c4bd
000002a0: b20b e0bd 4c7d eebd 8810 d33c 9661 ca3d
000002b0: 7c35 d83d a024 c93b 0078 c139 5621 973d
000002c0: ece9 813d aed1 bcbd 6899 13bd e048 edbd
000002d0: a675 f23d dc42 a73d b0b4 30bd 4075 aebc
000002e0: 8004 5e3b 827e ce3d 12c7 963d e4c4 cdbd
000002f0: d894 d6bc f48b 233d 6ed6 db3d 884f 2dbd
00000300: 90a1 7e3d 7028 3c3c 4082 52bd 480d 293d
00000310: 180c 953c d66c 8abd 50c7 1f3c a0df d23b
00000320: b839 98bc 88f3 f83c 5c82 73bd a81d 5dbd
00000330: d089 08bd c8fb 2b3d 1077 11bc 4c86 f1bd
00000340: 90f6 dcbc 409e 913b b803 95bd 18df edbc
00000350: 38ce f23c c8fb c53d 52c3 913d 343a 64bd
00000360: b0cb b4bd 28cd 6a3d 806c 353c 14cb 75bd
00000370: e474 723d fe8e e1bd 506c 573d 849b 043d
00000380: 22ee e23d 78c0 eabc c0fc a6bd c8a1 fd3d
00000390: f833 d8bc 5419 fbbd bcb2 3bbd 44da cc3d
000003a0: a4e6 aabd 40f1 df3c d6e3 fbbd 0073 1abd
000003b0: 4020 47bd a05e 17bd 32c9 82bd dc02 babd
000003c0: 442e 203d c818 693d 8054 b13c 7c08 133d
000003d0: 22a9 a2bd 4ce2 503d d485 073d 9e77 c63d
000003e0: be31 823d 50ae ff3d 786e 653d 968d ddbd
000003f0: ccaa 973d f829 92bc 4096 e13b 504f 5b3d

fc2.bias f4 [64]
0.03982836 -0.10066469 -0.031042308 -0.059608027 -0.09618382 0.025398463 -0.048284307 0.043142095
0.08969337 -0.022142917 0.0056002885 0.12429294 0.101843804 -0.039971083 -0.031427607 -0.017541036
-0.03601493 0.07987763 0.09816736 0.016011521 -0.071313515 -0.07936369 0.086613715 0.00506337
-0.106217235 -0.0906163 -0.015346095 -0.08112998 0.07280241 -0.08878669 -0.04491985 0.0321739
0.035975397 -0.08685765 0.08495146 0.015493676 -0.10471456 0.1141009 0.01958464 -0.030990213
-0.024684206 0.07405564 0.022282526 -0.04385084 0.062449187 0.081285894 -0.07431984 0.12456356
-0.11211254 -0.1153581 -0.038482875 -0.12437302 0.03246306 0.030772328 0.07359186 0.08483526
-0.11980668 -0.0549701 -0.01662369 0.1213384 -0.017298028 -0.017730996 0.07460567 0.03898689
00000000: 1023 233d 4a29 cebd 704c febc 8c27 74bd
00000010: 06fc c4bd 7010 d03c c4c5 45bd c4b5 303d
00000020: 28b1 b73d 1065 b5bc a082 b73b 4c8d fe3d
00000030: 7c93 d03d b8b8 23bd 3cba 00bd 38b2 8fbc
00000040: 6484 13bd e296 a33d f80b c93d 982a 833c
00000050: d20c 92bd 6e89 a2bd 8862 b13d a0ea a53b
00000060: 6c88 d9bd 0a95 b9bd 306e 7bbc 7a27 a6bd
00000070: 6e19 953d ccd5 b5bd e0fd 37bd c8c8 033d
00000080: f05a 133d 6ce2 b1bd 08fb ad3d 30d9 7d3c
00000090: 9674 d6bd bcad e93d f86f a03c 30df fdbc
000000a0: 8836 cabc 7caa 973d d889 b63c f09c 33bd
000000b0: b8ca 7f3d 3879 a63d 0035 98bd 2e1b ff3d
000000c0: 429b e5bd de40 ecbd 38a0 1dbd 48b7 febd
000000d0: fcf7 043d 4016 fc3c 54b7 963d 1cbe ad3d
000000e0: 345d f5bd 5428 61bd 682e 88bc 4480 f83d
000000f0: 98b4 8dbc 9840 91bc dcca 983d b8b0 1f3d

fc3.weight f4 [1, 64]
-0.011856005 -0.06074144 0.06026739 -0.032633945 -0.020344779 0.030207023 -0.072684914 0.11558527
-0.10883759 -0.032332525 -0.118841246 -0.010004297 0.024127647 0.039375424 -0.015201107 0.017783746
-0.013549343 0.045871615 0.08038032 -0.03683035 -0.01556626 0.0040718317 0.02758269 0.0035940409
-0.01833491 0.032694995 -0.06626876 -0.012695417 -0.020375803 0.034891397 0.0051133037 -0.1182604
0.07096484 -0.045814246 0.050566047 -0.008733571 -0.009979174 0.079702005 0.01719606 0.07730894
-0.008092701 0.11957967 -0.062317207 -0.09455031 -0.053950474 0.005237624 0.020155445 -0.086369365
-0.0788264 0.006298408 0.015091836 -0.039228737 -0.04520814 0.00966835 -0.12206608 0.038121313
-0.023262933 0.0012606829 0.0016878694 -0.013285562 -0.017080456 0.11030592 0.09411068 0.020604089
00000000: b03f 42bc 04cc 78bd f0da 763d 2cab 05bd
00000010: 18aa a6bc b874 f73c d4db 94bd f8b7 ec3d
00000020: 3ee6 debd 1c6f 04bd 0a63 f3bd 10e9 23bc
00000030: 58a7 c53c 2048 213d 100e 79bc 38af 913c
00000040: 10fe 5dbc e0e3 3b3d 709e a43d 6cdb 16bd
00000050: a009 7fbc 006d 853b 18f5 e13c 008a 6b3b
00000060: 1833 96bc 30eb 053d eab7 87bd 7000 50bc
00000070: 28eb a6bc 48ea 0e3d 808d a73b 8232 f2bd
00000080: 0456 913d b8a7 3bbd 581e 4f3d 4017 0fbc
00000090: b07f 23bc ce3a a33d c0de 8c3c 2654 9e3d
000000a0: 4097 04bc 30e6 f43d 5440 7fbd 98a3 c1bd
000000b0: 2cfb 5cbd 60a0 ab3b 081d a53c 6ce2 b0bd
000000c0: bc6f a1bd e062 ce3b c043 773c 50ae 20bd
000000d0: 2c2c 39bd 0068 1e3c c8fd f9bd 1825 1c3d
000000e0: e891 bebc 803d a53a 803b dd3a b0ab 59bc
000000f0: 50ec 8bbc 12e8 e13d 1abd c03d e8c9 a83c

in_fn.weight f4 [18]
1.0 1.0 1.0 1.0 1.0 1.0 1.0 1.0
1.0 1.0 1.0 1.0 1.0 1.0 1.0 1.0
1.0 1.0
00000000: 0000 803f 0000 803f 0000 803f 0000 803f
00000010: 0000 803f 0000 803f 0000 803f 0000 803f
00000020: 0000 803f 0000 803f 0000 803f 0000 803f
00000030: 0000 803f 0000 803f 0000 803f 0000 803f
00000040: 0000 803f 0000 803f

in_fn.bias f4 [18]
0.0 0.0 0.0 0.0 0.0 0.0 0.0 0.0
0.0 0.0 0.0 0.0 0.0 0.0 0.0 0.0
0.0 0.0
00000000: 0000 0000 0000 0000 0000 0000 0000 0000
00000010: 0000 0000 0000 0000 0000 0000 0000 0000
00000020: 0000 0000 0000 0000 0000 0000 0000 0000
00000030: 0000 0000 0000 0000 0000 0000 0000 0000
00000040: 0000 0000 0000 0000

in_fn.running_mean f4 [18]
0.0 0.0 0.0 0.0 0.0 0.0 0.0 0.0
0.0 0.0 0.0 0.0 0.0 0.0 0.0 0.0
0.0 0.0
00000000: 0000 0000 0000 0000 0000 0000 0000 0000
00000010: 0000 0000 0000 0000 0000 0000 0000 0000
00000020: 0000 0000 0000 0000 0000 0000 0000 0000
00000030: 0000 0000 0000 0000 0000 0000 0000 0000
00000040: 0000 0000 0000 0000

in_fn.running_var f4 [18]
1.0 1.0 1.0 1.0 1.0 1.0 1.0 1.0
1.0 1.0 1.0 1.0 1.0 1.0 1.0 1.0
1.0 1.0
00000000: 0000 803f 0000 803f 0000 803f 0000 803f
00000010: 0000 803f 0000 803f 0000 803f 0000 803f
00000020: 0000 803f 0000 803f 0000 803f 0000 803f
00000030: 0000 803f 0000 803f 0000 803f 0000 803f
00000040: 0000 803f 0000 803f

fc1.weight f4 [64, 18]
0.12144871 -0.10403384 -0.04569359 0.11063133 -0.22189881 0.14135472 -0.04848993 0.11991207
0.032766625 -0.02886036 0.0653746 0.0116276145 0.086085096 -0.09185341 -0.017184764 -0.021219641
0.03416361 -0.0009415895 0.20604308 0.07334821 -0.08777699 -0.14235505 -0.03950739 -0.10166797
-0.07553044 0.011285797 0.14050867 0.12811281 -0.23041095 0.14611666 0.0658467 0.22357668
0.15557759 -0.21475722 -0.2241077 -0.11368677 0.20697291 -0.039260685 0.10087101 -0.10953353
0.2312753 -0.09972526 0.17675896 0.0027911067 -0.12417206 0.12115447 -0.12511551 0.06932114
-0.068060726 -0.025841072 -0.22660135 -0.11237853 0.12790005 -0.057293862 0.23477112 0.18893619
-0.011036441 -0.15732726 0.14353375 0.07315187 -0.1523626 0.15309913 0.14309527 0.20904313
-0.13212517 -0.038798004 -0.004565999 0.03442608 -0.17887875 -0.1672596 0.1282231 -0.055270284
0.115134284 0.013437375 0.07739161 0.05182825 0.08570121 0.11684014 -0.21828671 0.11864106
-0.16572773 -0.17783947 0.0143340975 -0.04016535 0.13843359 -0.13650358 -0.20953505 0.17153676
-0.03495036 0.13257243 0.075774625 -0.1767473 0.04735218 0.05661489 -0.15781648 -0.11183419
0.08036874 0.042219594 -0.100261286 -0.07135083 0.21587561 -0.043609932 0.13288696 0.102059826
-0.15235962 -0.20044816 0.22624792 0.012307614 0.161564 0.04884492 0.0758072 0.17605983
0.22349633 -0.15640754 0.029469624 0.17589454 0.17075099 0.14642732 -0.17058218 -0.16973019
-0.14254603 0.029610887 0.23491617 -0.14888737 0.12560125 -0.13045841 -0.22161096 -0.05009608
0.13580479 0.21882005 -0.14638025 0.05115004 0.2033781 0.15618895 0.1468951 0.16749771
0.14908554 0.060881034 -0.16117795 -0.19793299 -0.10800363 -0.027446568 -0.14447424 0.08623253
0.07294698 -0.05337131 0.090589985 0.07617538 0.14390542 0.15873219 -0.079821214 0.23028715
-0.027249008 -0.008097783 -0.22247466 -0.1517018 -0.13769808 -0.10081527 0.16757713 -0.07702303
-0.17613587 0.090686426 0.07546468 0.15266214 -0.12196936 0.051103786 -0.08580756 -0.052956343
-0.18783547 -0.10742389 -0.072185636 0.1007946 0.043060318 0.05822234 0.23525564 0.22972192
0.16076006 0.0075055957 -0.16305679 0.18420358 -0.058940515 -0.019055426 -0.20305726 -0.046557933
-0.15202509 0.21658821 -0.20376956 -0.18372583 -0.008003578 -0.12744786 0.08433701 -0.090727836
-0.110706426 0.0133496225 0.17062439 -0.16579857 0.11068727 0.1514249 0.2305633 -0.1649753
0.057084695 -0.17428458 0.20123087 -0.091430396 0.1419759 0.007017195 -0.018357113 -0.0075207353
0.040068075 0.11110912 0.037801906 0.07190214 -0.21202001 0.17171793 0.20550032 0.19483285
0.17423646 -0.17009015 -0.08737482 0.20782466 -0.17952465 0.21383409 -0.1853789 -0.16603068
0.11522965 -0.16934949 -0.053999558 0.17147146 0.18669714 0.22291677 -0.047828108 -0.18320212
0.23207502 -0.050210744 -0.09697619 0.05745803 -0.16483235 0.15492244 0.14772232 -0.18702532
-0.19359933 -0.020646676 0.099000946 -0.0068264455 -0.11951933 0.005388722 -0.22154415 -0.16658518
-0.15690449 0.19410796 0.20777293 -0.080060214 0.010571331 0.10511799 0.028241232 -0.118028514
00000000: 1aba f83d b20f d5bd 3429 3bbd ae92 e23d
00000010: 7139 63be 4bbf 103e 609d 46bd 7694 f53d
00000020: 4c36 063d 906c ecbc 1ee3 853d c081 3e3c
00000030: 624d b03d a41d bcbd 10c7 8cbc d0d4 adbc
00000040: 24ef 0b3d 00d5 76ba f5fc 523e 9637 963d
00000050: 6cc4 b3bd 86c5 11be 80d2 21bd 4c37 d0bd
00000060: b4af 9abd 10e8 383c 81e1 0f3e 0130 033e
00000070: d9f0 6bbe 9b9f 153e a2da 863d 49f1 643e
00000080: bb4f 1f3e 51e9 5bbe 7d7c 65be 9cd4 e8bd
00000090: b5f0 533e d0cf 20bd 7695 ce3d 1e53 e0bd
000000a0: 6fd3 6c3e c23c ccbd 4d00 353e 00eb 363b
000000b0: ec4d febd d61f f83d 481e 00be 3ef8 8d3d
000000c0: 6c63 8bbd a8b0 d3bc 2f0a 68be b726 e6bd
000000d0: 3bf8 023e f8ac 6abd d767 703e 7d78 413e
000000e0: 30d2 34bc 661a 21be 83fa 123e a6d0 953d
000000f0: f104 1cbe 05c6 1c3e 9187 123e 670f 563e
00000100: d24b 07be a8ea 1ebd 609e 95bb 5c02 0d3d
00000110: fe2b 37be 1a46 2bbe eb4c 033e 1863 62bd
00000120: 86cb eb3d 7028 5c3c 7e7f 9e3d dc49 543d
00000130: 1e84 af3d e249 ef3d 8d86 5fbe 16fa f23d
00000140: 88b4 29be 8d1b 36be 90d9 6a3c 6c84 24bd
00000150: 89c1 0d3e 98c7 0bbe 5b90 56be 55a7 2f3e
00000160: 1c28 0fbd 11c1 073e ba2f 9b3d 3ffd 34be
00000170: 5cf4 413d 04e5 673d a59a 21be 5309 e5bd
00000180: 5e98 a43d 74ee 2c3d ca55 cdbd 6220 92bd
00000190: 7f0e 5d3e 54a0 32bd 8513 083e be04 d13d
000001a0: 2904 1cbe 4842 4dbe 89ad 673e e0a5 493c
000001b0: 0971 253e 9c11 483d ce40 9b3d 0749 343e
000001c0: 39dc 643e 4c29 20be 486a f13c b31d 343e
000001d0: 59d9 2e3e 0bf1 153e 18ad 2ebe c0cd 2dbe
000001e0: 96f7 11be 8892 f23c dd8d 703e ee75 18be
000001f0: 9d9d 003e e496 05be fced 62be 8c31 4dbd
00000200: 6910 0b3e 5d12 603e b4e4 15be b482 513d
00000210: 5942 503e ffef 1f3e ab6b 163e 8584 2b3e
00000220: e1a9 183e 645e 793d d50b 25be f2ae 4abe
00000230: 0231 ddbd a0d7 e0bc 0ef1 13be ae9a b03d
00000240: 3a65 953d e09b 5abd 3e87 b93d d601 9c3d
00000250: f15b 133e b18a 223e 4e79 a3bd 65d0 6b3e
00000260: 5039 dfbc 90ac 04bc 66d0 63be b757 1bbe
00000270: ba00 0dbe 3c78 cebd 5799 2b3e 40be 9dbd
00000280: f65c 34be ceb9 b93d 3a8d 9a3d 7753 1c3e
00000290: 12cb f9bd 3452 513d e0bb afbd c0e8 58bd
000002a0: f157 40be 0e01 dcbd 10d6 93bd 666d ce3d
000002b0: 0460 303d 8c7a 6e3d dbe6 703e 393c 6b3e
000002c0: 499e 243e 80f1 f53b 5cf8 26be dd9f 3c3e
000002d0: 9c6b 71bd 201a 9cbc 3eee 4fbe 88b3 3ebd
000002e0: 77ac 1bbe 4dc9 5d3e f8a8 50be a022 3cbe
000002f0: 7021 03bc b181 02be e2b8 ac3d 84cf b9bd
00000300: 0dba e2bd 60b8 5a3c 29b8 2e3e 1ac7 29be
00000310: 02b0 e23d 210f 1b3e c918 6c3e 49ef 28be
00000320: a4d1 693d a877 32be 770f 4e3e dc3f bbbd
00000330: 2162 113e 80f0 e53b a861 96bc 8070 f6bb
00000340: 6c1e 243d 2e8d e33d 2cd6 1a3d 6e41 933d
00000350: c61b 59be d3d6 2f3e ad6e 523e 4382 473e
00000360: 0b6b 323e 1d2c 2ebe 92f1 b2bd fdcf 543e
00000370: 4fd5 37be 53f7 5a3e f7d3 3dbe f203 2abe
00000380: 86fd eb3d f469 2dbe a42e 5dbd 3796 2f3e
00000390: 892d 3f3e 4b44 643e 68e7 43bd 5699 3bbe
000003a0: 13a5 6d3e c8a9 4dbd 749b c6bd 1c59 6b3d
000003b0: d0c9 28be fda3 1e3e 8544 173e 9183 3fbe
000003c0: e73e 46be 3823 a9bc 02c1 ca3d 60b0 dfbb
000003d0: 8dc6 f4bd e093 b03b 78dc 62be 4e95 2abe
000003e0: 92ab 20be 3dc4 463e 6dc2 543e 9cf6 a3bd
000003f0: 6033 2d3c 1a48 d73d 285a e73c efb8 f1bd
